weights/fre.pt (torch, 9925 bytes, 2 tensors)

w f4 [8, 1, 15, 15]
000000 a1 93 07 bd 5a 07 a1 3b f8 b7 6d bd 9d 34 de 3c
       -0.033099774 0.0049142065 -0.058036774 0.027124697
000010 81 ea 9c bd dd ec 1d 3d b4 11 a8 bd ad 1d 14 3d
       -0.076619156 0.03855597 -0.082065016 0.036161114
000020 8d 40 69 bd c2 dd 07 bc 1d 1d 75 bc ea 26 27 bd
       -0.056946326 -0.008292617 -0.014960554 -0.040808596
000030 d1 b5 ad 3b 3c 4e 3c bd de f0 e4 bb ef ef bd 3a
       0.005301215 -0.045973048 -0.0069867214 0.0014491061
000040 22 95 85 bd 95 41 33 3d 5b 3e d3 bd 63 6c 97 3d
       -0.065225855 0.043763716 -0.10314628 0.0739372
000050 a9 58 f0 bd c7 07 86 3d 7b dd b6 bd c7 c6 ae 3c
       -0.117356606 0.06544452 -0.08928963 0.021335019
000060 6a 82 10 bd 0d 5b 0b bd f0 f8 83 3c 86 77 8a bd
       -0.035280623 -0.03402238 0.016109914 -0.067610785
000070 88 cd ca 3c 76 e1 3e bd 7a 25 36 bd 53 36 d5 3c
       0.024756208 -0.046601735 -0.044469334 0.02602688
000080 c1 1a ba bd 87 da 91 3d d2 7d 06 be 9e 5a c8 3d
       -0.09087134 0.07121759 -0.13133934 0.09782909
000090 bf 18 10 be 58 d6 ba 3d d3 b1 bf bd 44 7f 24 3c
       -0.1407194 0.09122914 -0.09360089 0.010040108
0000a0 41 3e 80 bc 52 fd 68 bd 7b 6d ed 3c 7d c9 91 bd
       -0.015654685 -0.05688221 0.028982868 -0.07118509
0000b0 65 77 03 3c 02 cd 00 ba f0 f9 76 bd de df 2b 3d
       0.008024071 -0.0004913361 -0.060296953 0.041961543
0000c0 e8 16 d5 bd 7f 99 a9 3d 9b 4c 05 be 69 ba ad 3d
       -0.1040476 0.0828123 -0.13017504 0.084828205
0000d0 74 01 f9 bd 92 7f 2c 3d 93 f2 4f bd 26 24 b3 bc
       -0.1215848 0.042113848 -0.050768446 -0.021867823
0000e0 61 e0 42 3c 04 d3 88 bd 1b f2 e5 3c ce 6e 45 bd
       0.011894316 -0.06680873 0.028069546 -0.048201375
0000f0 26 3d 05 bd 97 b3 50 38 7c 45 7d bd 2b bd 17 3d
       -0.03252902 4.975832e-05 -0.061833844 0.03704564
000100 e4 ca d2 bd b3 67 94 3d 1f 99 09 be 98 2d f8 3d
       -0.102926046 0.072463416 -0.13437317 0.12118071
000110 5b c9 da bd b6 cc b3 3c 0a 95 13 bd 02 90 19 bd
       -0.10682937 0.0219482 -0.036030807 -0.037490852
000120 7b f1 0a 3c ed 86 6b bd 18 8a 95 ba 28 02 94 bc
       0.008480425 -0.057501722 -0.0011408953 -0.018067434
000130 65 d1 a0 bc ae df b3 bb 3c e7 2f bd db 7a d3 3c
       -0.019631097 -0.005489311 -0.04294513 0.025815418
000140 0a 7c 8e bd 63 d0 3f 3d ce 53 15 be 7c 2f 13 3d
       -0.06957252 0.046829592 -0.1458275 0.035933957
000150 1c 05 51 bd 4e 51 34 3a 56 2c 6f bc 0b 8c 06 bd
       -0.051030263 0.00068785704 -0.014597973 -0.0328484
000160 99 ad 4e 3b 00 dc f9 bc df 97 a0 bc 72 e6 32 bd
       0.0031536578 -0.030500412 -0.019603668 -0.0436768
000170 7d d0 81 bc 38 0e 05 bd 33 dc 3e bd 91 dc 74 3a
       -0.015846485 -0.032484263 -0.046596717 0.0009340728
000180 89 6a f1 bd 2d 11 89 3e 2a 07 fc bd 77 8c 60 3c
       -0.11787898 0.26770917 -0.12306054 0.013705364
000190 8d f9 81 bd c6 cc 6b bc 0a 1e 02 bd 5a 9f 00 bd
       -0.06346426 -0.0143920835 -0.03176693 -0.03140197
0001a0 d5 87 d3 bc ee 24 a9 bc 77 c7 18 3c e2 6c e7 bc
       -0.025821606 -0.020647492 0.0093249 -0.028250162
0001b0 cf 8f 76 bb f2 b4 ad 3c 7c c4 a6 bd df b5 81 3e
       -0.0037622338 0.021204446 -0.08142945 0.2533407
0001c0 77 54 ad 3e 76 d6 8a 3e e4 f1 e9 bd 81 dd 81 3d
       0.33853504 0.27116746 -0.1142309 0.06341077
0001d0 b5 7c 49 bd ef fc 56 3c ca 89 bf bc c7 9a 52 bb
       -0.049191196 0.0131218275 -0.023381133 -0.0032135712
0001e0 f0 14 88 bc 19 dc 4e bd 01 e0 af ba a7 fa 64 bd
       -0.016611546 -0.05050287 -0.0013418199 -0.055903103
0001f0 8f b6 51 bc ef 52 24 bd 6f 15 95 bd db f6 6a 3e
       -0.012799873 -0.040118154 -0.07279479 0.2294573
000200 2a 77 c6 bd ed 98 5c 3a e1 c7 84 bd ce 18 7b b9
       -0.096906975 0.00084151217 -0.064834364 -0.00023946466
000210 3b f7 55 bd 68 c9 29 bc 57 6c 1b bd 06 d6 bd bc
       -0.05223773 -0.01036296 -0.037945118 -0.023173343
000220 f6 af df bb 2b 2c 02 bd f8 64 b5 38 80 6b 11 bd
       -0.006826396 -0.031780403 8.6495595e-05 -0.03550291
000230 58 ac 8f 3b 84 77 06 bd 92 06 9a bd e8 0c 7b bc
       0.0043845586 -0.032828823 -0.075207844 -0.015322901
000240 b6 84 d2 bc 1a 9c 55 3b 3b 04 29 bd 5b 68 c0 3b
       -0.025698047 0.0032594264 -0.0412638 0.005871815
000250 0f a2 15 bd b6 98 f1 bb 25 5c d3 bc d5 5f 88 bc
       -0.036531504 -0.007372941 -0.025800774 -0.016647259
000260 06 04 e4 bc 3a ef 99 bc 8a 10 c3 bc 3f e7 bd bc
       -0.02783395 -0.01879083 -0.023811597 -0.023181556
000270 d4 b9 04 bd f0 49 f8 3c b6 61 26 bd b1 6b 1b bc
       -0.032403782 0.030308694 -0.04062053 -0.009486125
000280 88 47 28 bd 5d 92 4c ba 80 48 33 bd b6 50 91 bb
       -0.041083843 -0.0007803792 -0.043770313 -0.0044346703
000290 5e 85 03 bd 39 64 02 bc 9a a0 2b bd 75 26 99 3b
       -0.03210961 -0.007958465 -0.04190121 0.004673774
0002a0 59 45 30 bd 34 31 64 bb d6 b5 d5 bc 13 3c cf bc
       -0.043034885 -0.0034819366 -0.026087683 -0.0252972
0002b0 3e 24 c2 bc 50 b1 ea bc 4e 05 9c bc 6d 6f 5a bc
       -0.023698922 -0.028649002 -0.019045498 -0.01333223
0002c0 a8 3d 00 bd b3 01 e3 bb 2d 29 03 bd 64 53 5a bc
       -0.0313088 -0.006927693 -0.03202169 -0.013325546
0002d0 53 87 19 bd bd e9 12 3c 31 8d 67 bd 19 51 76 3c
       -0.03748257 0.00896686 -0.056531135 0.015033984
0002e0 93 f1 55 bd c2 a1 2b 3b b1 11 25 bd fd e2 1b 3b
       -0.052232336 0.0026188944 -0.040300075 0.0023786419
0002f0 4c 8c f6 bc ad 22 8b bc 0c a6 d6 bc 8a 3a 67 bc
       -0.030096196 -0.016984308 -0.026202224 -0.014113078
000300 43 14 ec bc 29 4e 62 bc d8 6f cd bc 02 9d 8f bb
       -0.028818255 -0.01381258 -0.025077745 -0.0043827305
000310 da 83 51 bd 69 5b 81 3c 7a 6b 6c bd 9c c9 27 3c
       -0.051151134 0.015790658 -0.057719685 0.0102409385
000320 28 be 27 bd 9b 57 71 bc ab 32 9b bc 2b d5 e5 bc
       -0.04095283 -0.014730359 -0.018945059 -0.028055748
000330 e2 a7 80 bc 3b 9d bd bc 4b 23 a9 bc 25 2e 9c bc
       -0.015705053 -0.023146262 -0.020646712 -0.019064972
000340 77 fb ba bc de 97 9f bc fc 13 f4 bc a9 16 50 bb
       -0.022824986 -0.019481596 -0.029794686 -0.0031751788
000350 ed 00 2e bd 8b 30 06 3b cb c3 2a bd 6d 27 51 bb
       -0.04248135 0.0020475711 -0.04169063 -0.0031914369
000360 d9 aa 1d bd c8 05 03 bb 9f 03 f9 bc e5 b9 96 bc
       -0.03849301 -0.001999246 -0.030397234 -0.018399188
000370 4d 00 b2 bc 16 1d a4 bc bb 0b b3 bc f0 8d a1 bc
       -0.021728659 -0.0200334 -0.02185618 -0.019721001
000380 1a ae ae bc da f7 0c bd 7c 63 ae 38 27 fc 34 bd
       -0.021323252 -0.034416057 8.315497e-05 -0.044185784
000390 71 55 d3 bb c2 02 c9 bc 46 69 0f bd 87 83 0c 3b
       -0.0064493944 -0.024537448 -0.035012506 0.00214407
0003a0 61 07 5c bd 24 aa c9 3c 6f 22 9d bd 2b 1d f6 3c
       -0.053717975 0.024617262 -0.07672583 0.030043205
0003b0 73 9b 87 bd b7 dd 38 3c f9 bb 35 bd da f6 3d bc
       -0.066214465 0.01128333 -0.044368718 -0.0115944985
0003c0 07 60 c3 3a 5b e8 7a bd 9f 0b 8c 3c 5a 80 41 bd
       0.0014905938 -0.061256748 0.017095385 -0.047241546
0003d0 d6 90 b7 bc 33 97 43 3c 7e 5a b8 bd d1 64 8f 3d
       -0.02240793 0.011937904 -0.09001635 0.07001651
0003e0 7e 13 05 be 3a 99 af 3d 7f 20 f3 bd 64 4b 6e 3d
       -0.12995717 0.085741475 -0.118714325 0.058177367
0003f0 12 11 a5 bd 4d b6 8c 3c 60 db 24 bd b3 30 4a bd
       -0.080598965 0.017176772 -0.040248275 -0.04936285

one_middle f4 [225]
000000 00 00 00 00 00 00 00 00 00 00 00 00 00 00 00 00
       0.0 0.0 0.0 0.0
000010 00 00 00 00 00 00 00 00 00 00 00 00 00 00 00 00
       0.0 0.0 0.0 0.0
000020 00 00 00 00 00 00 00 00 00 00 00 00 00 00 00 00
       0.0 0.0 0.0 0.0
000030 00 00 00 00 00 00 00 00 00 00 00 00 00 00 00 00
       0.0 0.0 0.0 0.0
000040 00 00 00 00 00 00 00 00 00 00 00 00 00 00 00 00
       0.0 0.0 0.0 0.0
000050 00 00 00 00 00 00 00 00 00 00 00 00 00 00 00 00
       0.0 0.0 0.0 0.0
000060 00 00 00 00 00 00 00 00 00 00 00 00 00 00 00 00
       0.0 0.0 0.0 0.0
000070 00 00 00 00 00 00 00 00 00 00 00 00 00 00 00 00
       0.0 0.0 0.0 0.0
000080 00 00 00 00 00 00 00 00 00 00 00 00 00 00 00 00
       0.0 0.0 0.0 0.0
000090 00 00 00 00 00 00 00 00 00 00 00 00 00 00 00 00
       0.0 0.0 0.0 0.0
0000a0 00 00 00 00 00 00 00 00 00 00 00 00 00 00 00 00
       0.0 0.0 0.0 0.0
0000b0 00 00 00 00 00 00 00 00 00 00 00 00 00 00 00 00
       0.0 0.0 0.0 0.0
0000c0 00 00 00 00 00 00 00 00 00 00 00 00 00 00 00 00
       0.0 0.0 0.0 0.0
0000d0 00 00 00 00 00 00 00 00 00 00 00 00 00 00 00 00
       0.0 0.0 0.0 0.0
0000e0 00 00 00 00 00 00 00 00 00 00 00 00 00 00 00 00
       0.0 0.0 0.0 0.0
0000f0 00 00 00 00 00 00 00 00 00 00 00 00 00 00 00 00
       0.0 0.0 0.0 0.0
000100 00 00 00 00 00 00 00 00 00 00 00 00 00 00 00 00
       0.0 0.0 0.0 0.0
000110 00 00 00 00 00 00 00 00 00 00 00 00 00 00 00 00
       0.0 0.0 0.0 0.0
000120 00 00 00 00 00 00 00 00 00 00 00 00 00 00 00 00
       0.0 0.0 0.0 0.0
000130 00 00 00 00 00 00 00 00 00 00 00 00 00 00 00 00
       0.0 0.0 0.0 0.0
000140 00 00 00 00 00 00 00 00 00 00 00 00 00 00 00 00
       0.0 0.0 0.0 0.0
000150 00 00 00 00 00 00 00 00 00 00 00 00 00 00 00 00
       0.0 0.0 0.0 0.0
000160 00 00 00 00 00 00 00 00 00 00 00 00 00 00 00 00
       0.0 0.0 0.0 0.0
000170 00 00 00 00 00 00 00 00 00 00 00 00 00 00 00 00
       0.0 0.0 0.0 0.0
000180 00 00 00 00 00 00 00 00 00 00 00 00 00 00 00 00
       0.0 0.0 0.0 0.0
000190 00 00 00 00 00 00 00 00 00 00 00 00 00 00 00 00
       0.0 0.0 0.0 0.0
0001a0 00 00 00 00 00 00 00 00 00 00 00 00 00 00 00 00
       0.0 0.0 0.0 0.0
0001b0 00 00 00 00 00 00 00 00 00 00 00 00 00 00 00 00
       0.0 0.0 0.0 0.0
0001c0 00 00 80 3f 00 00 00 00 00 00 00 00 00 00 00 00
       1.0 0.0 0.0 0.0
0001d0 00 00 00 00 00 00 00 00 00 00 00 00 00 00 00 00
       0.0 0.0 0.0 0.0
0001e0 00 00 00 00 00 00 00 00 00 00 00 00 00 00 00 00
       0.0 0.0 0.0 0.0
0001f0 00 00 00 00 00 00 00 00 00 00 00 00 00 00 00 00
       0.0 0.0 0.0 0.0
000200 00 00 00 00 00 00 00 00 00 00 00 00 00 00 00 00
       0.0 0.0 0.0 0.0
000210 00 00 00 00 00 00 00 00 00 00 00 00 00 00 00 00
       0.0 0.0 0.0 0.0
000220 00 00 00 00 00 00 00 00 00 00 00 00 00 00 00 00
       0.0 0.0 0.0 0.0
000230 00 00 00 00 00 00 00 00 00 00 00 00 00 00 00 00
       0.0 0.0 0.0 0.0
000240 00 00 00 00 00 00 00 00 00 00 00 00 00 00 00 00
       0.0 0.0 0.0 0.0
000250 00 00 00 00 00 00 00 00 00 00 00 00 00 00 00 00
       0.0 0.0 0.0 0.0
000260 00 00 00 00 00 00 00 00 00 00 00 00 00 00 00 00
       0.0 0.0 0.0 0.0
000270 00 00 00 00 00 00 00 00 00 00 00 00 00 00 00 00
       0.0 0.0 0.0 0.0
000280 00 00 00 00 00 00 00 00 00 00 00 00 00 00 00 00
       0.0 0.0 0.0 0.0
000290 00 00 00 00 00 00 00 00 00 00 00 00 00 00 00 00
       0.0 0.0 0.0 0.0
0002a0 00 00 00 00 00 00 00 00 00 00 00 00 00 00 00 00
       0.0 0.0 0.0 0.0
0002b0 00 00 00 00 00 00 00 00 00 00 00 00 00 00 00 00
       0.0 0.0 0.0 0.0
0002c0 00 00 00 00 00 00 00 00 00 00 00 00 00 00 00 00
       0.0 0.0 0.0 0.0
0002d0 00 00 00 00 00 00 00 00 00 00 00 00 00 00 00 00
       0.0 0.0 0.0 0.0
0002e0 00 00 00 00 00 00 00 00 00 00 00 00 00 00 00 00
       0.0 0.0 0.0 0.0
0002f0 00 00 00 00 00 00 00 00 00 00 00 00 00 00 00 00
       0.0 0.0 0.0 0.0
000300 00 00 00 00 00 00 00 00 00 00 00 00 00 00 00 00
       0.0 0.0 0.0 0.0
000310 00 00 00 00 00 00 00 00 00 00 00 00 00 00 00 00
       0.0 0.0 0.0 0.0
000320 00 00 00 00 00 00 00 00 00 00 00 00 00 00 00 00
       0.0 0.0 0.0 0.0
000330 00 00 00 00 00 00 00 00 00 00 00 00 00 00 00 00
       0.0 0.0 0.0 0.0
000340 00 00 00 00 00 00 00 00 00 00 00 00 00 00 00 00
       0.0 0.0 0.0 0.0
000350 00 00 00 00 00 00 00 00 00 00 00 00 00 00 00 00
       0.0 0.0 0.0 0.0
000360 00 00 00 00 00 00 00 00 00 00 00 00 00 00 00 00
       0.0 0.0 0.0 0.0
000370 00 00 00 00 00 00 00 00 00 00 00 00 00 00 00 00
       0.0 0.0 0.0 0.0
000380 00 00 00 00
       0.0
